data/pretrained_MoleculeSTM/SciBERT-Graph-3e-5-1-1e-4-1-InfoNCE-0.1-32-32/mol2latent_model.pth (torch, 309223 bytes, 2 tensors)

weight f4 [256, 300]
000000 c7 21 cc bc fb f9 11 bd 82 5b 7d bb d1 2c aa 3b
       -0.02491845 -0.03563879 -0.003865928 0.005193331
000010 57 49 1c bd 9b 54 6e 3c dc ce d7 bb 3e 06 ce bd
       -0.03815588 0.014546539 -0.006585939 -0.10059784
000020 31 d2 b4 3b c1 20 e1 bc 48 4e 0d 3c 74 45 8f 3d
       0.005518221 -0.027481439 0.008624621 0.06995669
000030 89 57 3a 3d 0b 1d 68 bd 88 4c 4b bc 07 e3 fa bb
       0.045493636 -0.056668323 -0.012408383 -0.0076564583
000040 fc 52 c7 3d c5 6f 99 bd 85 2d ce 3c 66 ce 08 3d
       0.09732625 -0.074920215 0.02516819 0.033399962
000050 3c b8 00 bd 4b eb 9e 3c d4 20 94 3d 01 8d eb 3d
       -0.0314257 0.019399306 0.07232824 0.11501504
000060 73 bb 4e 3e 05 24 6f 3c 9a ca 8f 3c 80 9a 90 bd
       0.20188694 0.01459599 0.017552663 -0.070607185
000070 15 ae 95 bd 53 21 42 3b eb 2a be bd 89 a7 2a be
       -0.07308594 0.0029621914 -0.0928553 -0.16665472
000080 25 7d 8a 3d ba ff e5 bd d2 9a b4 3d fa 49 ec bd
       0.06762151 -0.112304166 0.08818592 -0.115375474
000090 f7 e9 3f 3c 55 d9 c3 bc 2b 58 fd 3c 99 c0 a7 3d
       0.011713496 -0.023907343 0.03092583 0.08191032
0000a0 a5 b0 04 bd bd 01 fb 3d 0c fc 42 3d c2 4c 01 be
       -0.032395024 0.12256191 0.047603652 -0.12626937
0000b0 8d b0 a0 3b 71 5d d6 39 82 9f 78 bd f7 46 31 3c
       0.004903859 0.0004088688 -0.060698994 0.010820142
0000c0 5b e6 a4 bd f6 17 5f 3c 2a db 95 3c 00 af 75 3d
       -0.08051749 0.013616553 0.018292982 0.059981346
0000d0 f9 e8 17 3c f7 2d 88 3d 04 2e 3e 3d 36 b5 d1 3c
       0.009271854 0.06649392 0.046430603 0.025599103
0000e0 28 fb dd bb d7 c9 e5 3c a2 41 7f bc d3 a2 e8 bc
       -0.006774325 0.028050346 -0.015579613 -0.028397953
0000f0 b1 be e8 bd f0 8a a9 bd 36 35 08 be 7f d9 cd bd
       -0.113644965 -0.08278453 -0.13301548 -0.1005125
000100 86 52 05 bd c7 a5 f6 3c 24 b3 97 bd 7a 99 ba 3d
       -0.032549404 0.030108346 -0.07407215 0.091113046
000110 f5 70 a7 bd d4 a6 53 3d 71 e1 ff bd f9 47 8e bd
       -0.08175842 0.05167277 -0.124941714 -0.069473214
000120 ee 0b da 3d ff c1 4b bd 6f 5e c5 bd 04 70 a8 bc
       0.10646807 -0.049745556 -0.096371524 -0.020561226
000130 17 58 58 bd 23 ef 99 3d 17 80 1b bc 66 7b 4a bd
       -0.052818384 0.07516315 -0.009490988 -0.04943409
000140 a9 2c 90 3c 4a 33 9c bc 4e c6 2e be 24 28 fc bd
       0.01759942 -0.019067425 -0.17067835 -0.12312344
000150 d0 e7 0b 3d 0b 36 61 3d 6d e1 a8 bd ac 81 82 bd
       0.03415662 0.05498318 -0.082461216 -0.06372389
000160 d3 f9 e2 3d fa 52 f3 3d ca 19 f3 bc 24 bf 61 bc
       0.110828064 0.11881061 -0.029675383 -0.013778482
000170 dc 59 a6 bd b9 b0 7e bd 4e 46 02 bd de ee d2 bc
       -0.08122608 -0.062180255 -0.03180533 -0.025748666
000180 6c 34 c1 3c 16 86 0e 3b cd 8b d6 3c 35 c2 04 3e
       0.023584567 0.0021747402 0.02618971 0.12964709
000190 80 45 93 bc 3a bf 8f 3d ab b7 fe bc 84 24 16 bd
       -0.017977476 0.070188954 -0.03109344 -0.036655918
0001a0 5a ac dc 3c dc 86 08 3e d4 13 3a 3d 72 c9 12 bd
       0.026937652 0.13332695 0.045429066 -0.035836644
0001b0 d5 3a 8e 3c ee ca e6 3d e3 67 33 3b ee 51 13 bb
       0.017362038 0.112691745 0.0027375154 -0.0022479254
0001c0 d3 de 3d 3d 54 40 e8 3d 09 2c 12 bd c6 ab 74 3c
       0.04635508 0.113403946 -0.035686526 0.014933532
0001d0 da f4 3c bd 4f ca fc 3c 21 47 d5 3d db b0 83 3d
       -0.046131946 0.030858187 0.104139574 0.06430217
0001e0 d3 d6 b9 bd 37 ff f3 3d a9 42 b7 bd fc 86 fc bd
       -0.090741776 0.11913913 -0.08948261 -0.12330434
0001f0 bf 5e c3 3c 7d cb 88 3c 09 f8 f2 3d 74 9e 26 bd
       0.02384889 0.016698593 0.11863715 -0.040678456
000200 6a ba 23 3c 51 d6 f2 bc 6a 8b e7 3c c8 c0 55 bc
       0.009993175 -0.02964321 0.02826472 -0.013046451
000210 6a ee c2 bd 14 bd ae 3b f7 4d df bc 66 95 4a bd
       -0.0951813 0.0053325985 -0.027258856 -0.049458884
000220 95 13 01 3d 7b b4 b7 bd 7e 75 38 3d 54 7a 6d bd
       0.031512816 -0.08969971 0.045033924 -0.05797799
000230 4d 74 74 bd de 19 81 bd b9 72 82 bd 74 d8 73 3d
       -0.059681226 -0.06303762 -0.06369538 0.059532598
000240 9b 11 b7 bd 30 9e 6f bc 47 f4 e4 3c 3e d2 5e bd
       -0.08938905 -0.014625117 0.027948512 -0.05439972
000250 71 ce 67 bd ab d3 1d bd ef cc 7f bc 41 31 d9 bc
       -0.056593362 -0.03853194 -0.015612825 -0.026512744
000260 b6 6d 4b 3d cc 1b 9c bd 76 a7 cf bd 42 b5 3a bd
       0.049665175 -0.07622489 -0.101393625 -0.045583017
000270 03 3b bd 3d b1 15 79 bd d2 35 fe 3c 1d 1b 18 3d
       0.09239771 -0.060811702 0.031031523 0.037135232
000280 b7 31 42 bd b7 98 cd 3d 74 00 1b bd fb 70 97 bd
       -0.047410693 0.10038894 -0.03784223 -0.07394596
000290 ba b5 14 3e 9c 43 d3 3a 91 f2 88 bd ec fc 12 3d
       0.14522448 0.0016118172 -0.06686891 0.035885736
0002a0 40 13 46 3d 9a 72 8a bd e1 43 78 bc fd fc f8 bd
       0.048358202 -0.0676014 -0.015152902 -0.12157629
0002b0 ba 76 e0 3d 57 d7 1f bc 4b 5e e7 bc 86 3e 9d b9
       0.10960145 -0.009755931 -0.028243205 -0.00029991957
0002c0 83 e0 bc bc 16 c3 1a bd 86 f8 a3 bc e2 86 94 bd
       -0.023056274 -0.037783705 -0.020015966 -0.07252289
0002d0 35 7f 1a 3d cd b3 c8 3d a5 0d be bd a4 ec 05 bd
       0.03771897 0.09799919 -0.09279946 -0.03269638
0002e0 af 39 f6 bc 3f 00 5d 3d 47 67 90 3d 2b f0 50 bd
       -0.030056803 0.053955313 0.070509486 -0.051010292
0002f0 af 4b cc bc f0 bd 04 3d 38 43 d0 bc fb 4d 6b 3c
       -0.024938432 0.0324077 -0.025422677 0.014361854
000300 c3 20 06 bd 8c 0a 14 3d b2 f5 1b 3c 6b 7f 54 3d
       -0.032746088 0.03614287 0.009519028 0.051879328
000310 28 7b 93 bd 4b 1e 39 bd 0e 4e 34 be 68 af a3 3d
       -0.072012246 -0.045194905 -0.176079 0.079924405
000320 f6 23 8c 3b 69 55 82 bd 57 41 aa bd e8 11 66 bd
       0.004276748 -0.06363947 -0.08313244 -0.05616942
000330 33 26 0c 3c c7 40 31 3d 49 5c ae 3d d1 ab f5 bb
       0.008554029 0.043274667 0.08513696 -0.0074972888
000340 9d 9f 8f 3d 8c d0 a1 bd 89 5c 10 be ba e1 e1 bd
       0.07012866 -0.07901105 -0.140978 -0.11029382
000350 cc 4a 1a 3d bd 43 73 bd 28 77 99 bc ed 28 07 3e
       0.037668988 -0.059390772 -0.018733576 0.13199206
000360 73 4e 90 3b 60 4d 3e 3d 5c 08 6a bd e4 d8 f2 3d
       0.004403883 0.04646051 -0.05713688 0.11857775
000370 9b 7a e3 3c b8 7e 3d bd 3c 36 08 bc 3c af 8d 3d
       0.027768424 -0.046263427 -0.008313712 0.06918189
000380 89 7c 86 3d 7f 8b b0 3d 2f 72 2e 3e 28 60 98 bd
       0.06566722 0.08620357 0.17035745 -0.07440215
000390 1f 48 ab bb c1 24 05 be fb 36 31 bd 5a bd 21 3d
       -0.0052271034 -0.13002302 -0.043265324 0.03948722
0003a0 50 23 dd 3d 2d 80 c5 3c d6 b9 fa bd da b9 26 3d
       0.10797751 0.02410897 -0.12242477 0.040704586
0003b0 8f b1 d1 bc 12 56 a1 3d 34 10 25 bc 7a 76 a0 bd
       -0.025597362 0.07877745 -0.010074664 -0.078350976
0003c0 16 61 1f 3d eb 56 21 3c 48 75 d0 3d 7e 36 03 3d
       0.038910948 0.009847383 0.101786196 0.03203439
0003d0 4a 44 07 3d 37 e4 81 3d 6f bf 10 3d b8 c9 d5 3c
       0.03302411 0.06342357 0.035338815 0.026097164
0003e0 31 80 49 bd 92 ac c6 bd 33 cf 85 bd 3d e2 ef 3d
       -0.04919452 -0.09700884 -0.06533661 0.117130734
0003f0 53 16 68 bc 70 1e 44 bd 37 e7 08 3d 83 01 18 bb
       -0.014165479 -0.04788059 0.03342363 -0.002319426

bias f4 [256]
000000 80 cd 36 be 1b d8 7d 3d 59 05 9d bd 5d 81 80 bd
       -0.1785183 0.061973672 -0.076670356 -0.06274674
000010 df e6 93 bd b9 73 3f be cb 27 25 3e ff ef 19 be
       -0.072217695 -0.18696488 0.16128461 -0.15032957
000020 0c 72 80 bd 3e 96 17 be 76 3b fb 3d 07 7c 1d 3d
       -0.06271753 -0.14803407 0.12267201 0.03844836
000030 a0 60 1a be c7 86 92 3d 8a 81 a0 3d aa ac 0f 3e
       -0.15075922 0.07154613 0.078372076 0.1403071
000040 5a c3 0f 3d 99 68 ba 3d 5c b8 91 bd 66 88 21 3e
       0.03509841 0.09101982 -0.07115242 0.15774688
000050 f6 e5 2f 3e 1d 8a 05 3e f4 db df 3d 41 8a a1 bd
       0.17177567 0.13040967 0.109306246 -0.07887698
000060 ab cf 61 3d a7 1a 21 be d8 58 3b 3d 19 9a 17 be
       0.05512969 -0.15732823 0.045739025 -0.14804877
000070 41 29 ae bb f3 bc 60 be ac fe 35 3e 60 ba b5 bb
       -0.0053149764 -0.21947078 0.17772931 -0.0055458993
000080 bd 8a 98 3c 2d 6e 95 3c 11 a3 b8 bd 50 6b 4f be
       0.018620843 0.018241012 -0.090154774 -0.2025578
000090 5e e8 03 3e 08 57 1e be 74 84 f3 bd 97 d2 4b bd
       0.1288161 -0.15462887 -0.11890498 -0.04976138
0000a0 05 2a f3 bd 29 5a 4d bd cf 9c 19 be 97 50 50 bc
       -0.11873249 -0.05013481 -0.15001224 -0.012714527
0000b0 33 9f 32 3d ad bc e4 bd 79 4d cc 3d 04 35 bb 3d
       0.043608855 -0.111687995 0.09975714 0.09140971
0000c0 57 94 b2 bc a4 0b 26 bd c1 88 3e bd 28 94 a0 3d
       -0.02179925 -0.040538445 -0.046517137 0.078407586
0000d0 69 50 5e bd 25 8f 64 bd a7 d7 af bc a1 7c 22 3d
       -0.054275904 -0.055800576 -0.021465136 0.039669637
0000e0 04 dd d6 3d a0 c0 47 be 24 dc b5 3d 64 8e 36 3e
       0.10491374 -0.19507074 0.08879879 0.17827755
0000f0 86 2c 72 3d 19 26 6a 3d aa c7 0e 3e 56 a1 bc bc
       0.059124492 0.05716524 0.13943353 -0.02302615
000100 33 ac bb 3c 70 f0 b0 3d 61 57 d0 3d 54 7c 2b 3e
       0.02290926 0.0863961 0.10172916 0.16746646
000110 d5 60 18 bd ed c6 d3 bc 33 a6 e6 39 01 3d f0 bd
       -0.03720172 -0.025851691 0.00043992847 -0.117303856
000120 3b e1 01 be 4c c5 5f 3d ef 77 13 3e 24 f8 02 be
       -0.12683575 0.054631516 0.1440122 -0.1278997
000130 2b 68 a0 3c 5d a6 c1 3d 55 3d 57 3e 5a 53 53 3e
       0.019580921 0.094555594 0.2101949 0.20637265
000140 d9 f0 07 3d f2 37 43 be 2b 1a 12 bc 48 0d ff 3d
       0.033188675 -0.1906431 -0.008917372 0.12453705
000150 a2 f7 a5 bd 32 16 34 bd c0 8e 3b be 8c 72 c0 3c
       -0.08103873 -0.04396648 -0.18316174 0.02349212
000160 fd 34 cb 3d 74 76 30 3e bc 04 5b 3d 23 84 d0 3d
       0.09922216 0.17232686 0.053471312 0.10181453
000170 f9 3e 0a be 42 f0 e4 bd c6 73 0d 3d 3c 18 83 bd
       -0.13500585 -0.11178638 0.03453424 -0.06401107
000180 02 99 15 3d 3f 7d b2 bd ce 0d 88 bd f9 91 14 3e
       0.036522873 -0.08715295 -0.06643258 0.14508809
000190 63 85 4c 3c a2 66 a7 bd 7f 1f 51 be d5 b1 05 be
       0.012482974 -0.081738725 -0.20422171 -0.13056119
0001a0 d7 26 f4 bd c3 7d 30 bd 2a a6 8d 3c be ce 32 bd
       -0.119214706 -0.043088686 0.017291147 -0.043654196
0001b0 25 78 86 be 4a 68 b1 bc 3a 06 af bd ae b4 5d 3d
       -0.26263538 -0.021656174 -0.085461095 0.054127388
0001c0 a4 2e 5b be bc 0e 08 3d 88 6e 2b bd fa 83 4c bc
       -0.2140451 0.033217177 -0.041853458 -0.012482638
0001d0 aa 84 e2 bc 55 25 88 3c f1 d5 8b bd da c3 0c be
       -0.02765115 0.016619364 -0.068279155 -0.13746586
0001e0 0d 1b 65 bd 9c d6 9b 3d 3f d0 af 3d 03 51 1d be
       -0.055934 0.07609293 0.08584642 -0.15362935
0001f0 4c 5e b1 3b 35 27 03 3e 80 e6 66 bd 97 6e de 3b
       0.0054128524 0.12807925 -0.056372166 0.0067880857
000200 73 e1 90 3c 95 c3 25 be f7 45 0c be b0 95 e3 bc
       0.017685628 -0.1618789 -0.13698564 -0.027781337
000210 0b 70 c1 3d 6f dc 88 bc 0d a4 96 bb 8c a6 63 be
       0.094451986 -0.016706673 -0.004597193 -0.22231501
000220 9b 26 02 bc 06 43 7a 3d 51 34 44 3e ff 99 37 bd
       -0.007943775 0.061099075 0.19160582 -0.044824596
000230 cc f7 46 3d 3d 8f b8 3b 11 c0 5f 3d 43 e5 df bc
       0.04857616 0.0056323097 0.05462653 -0.027331
000240 bc 96 95 3d 3f 80 2a 3e 1b 18 b9 3d 0d 5b e5 bd
       0.07304141 0.16650485 0.09037801 -0.11199007
000250 3c a4 20 bd 0a 69 39 bd 73 3f 02 3e ae d6 95 bd
       -0.039219126 -0.04526619 0.12719516 -0.073163375
000260 e1 43 a7 bd bb 02 26 bd b5 93 fd bd 90 10 b1 3d
       -0.08167244 -0.040529948 -0.123816885 0.08645737
000270 69 06 f8 bd ff bf 09 3d fc 6c d1 3c 6e 1b 43 bd
       -0.12110598 0.033630367 0.025564663 -0.04763358
000280 73 4b 63 be 4d 03 0d 3d 4e 0f 8d bd 45 1d db bc
       -0.2219675 0.034426976 -0.06887685 -0.026747355
000290 c6 9f 59 3d 4c d8 22 3d 98 88 e3 bd 03 3b fc bd
       0.053130887 0.039757058 -0.111100376 -0.12315943
0002a0 e3 f2 12 3e d2 ba d1 3d a5 b0 c1 bc 04 62 1b 3d
       0.14350466 0.10240711 -0.023643801 0.03793527
0002b0 f0 3d 87 bd 7c ef dc bc 1f e3 66 bc a7 d2 10 3d
       -0.066036105 -0.026969664 -0.014092236 0.035357144
0002c0 63 1c c9 bd 34 d6 39 bd 2c 0a c9 3d b6 96 a8 bd
       -0.098198675 -0.045370296 0.09816393 -0.08231871
0002d0 8d 31 01 bc cd a4 2b 3d cd ad b6 3c 7b da 36 be
       -0.007885349 0.041905213 0.022299672 -0.17856781
0002e0 c8 06 eb bb ca c4 88 3d 9a 9a b1 bd 48 65 6a bd
       -0.0071724392 0.066781595 -0.08672066 -0.057225496
0002f0 f7 ab dd bd 1f 69 32 be 6c 37 1d 3e f2 fb 76 3d
       -0.10823815 -0.17422913 0.15353173 0.060298868
000300 d1 d9 e2 3d 10 4b 7f 3d 00 69 0e 3e a5 63 50 3d
       0.110767014 0.062327445 0.13907242 0.05087628
000310 18 5b 03 be ad b0 16 bc 4b 92 7d bd fe 0d 0c be
       -0.12827718 -0.009197396 -0.061907094 -0.13677213
000320 ad 31 7d bd cf 10 94 bc 05 a7 b7 3d ab 48 28 3d
       -0.061814953 -0.018074421 0.08967403 0.041084927
000330 4b 3e ab bd 0b 93 9f bd 65 18 c3 bd 09 67 aa 3d
       -0.08361491 -0.07791718 -0.09526137 0.08320434
000340 d6 7a 91 3c 66 a9 34 3d 46 55 1c 3c 2b 21 86 3c
       0.017758768 0.044106863 0.009541815 0.016373238
000350 17 df 48 bd 5f 03 c8 b8 28 e4 f7 3c db 16 0c be
       -0.04904088 -9.537371e-05 0.03026016 -0.13680594
000360 25 10 e5 bd 04 e4 66 bd c5 d5 df bd 09 21 0f 3d
       -0.1118472 -0.056369796 -0.10929445 0.034943614
000370 d7 71 b2 3c be de 2a 3e 73 5c f5 bd a3 c1 51 bc
       0.021782799 0.16686532 -0.11980524 -0.012802514
000380 57 2f 49 3e 6e 83 8a 3d b5 37 74 bb 06 8e 8c 3b
       0.19646965 0.067633495 -0.003726465 0.0042893915
000390 4b 97 87 bd ee 19 2b bd a0 f5 e2 3c 61 e9 3a 3d
       -0.06620654 -0.041772775 0.027705014 0.045632724
0003a0 5d 2d 37 bd cb 10 32 3e f0 79 94 bd b7 8f 14 3e
       -0.044720996 0.17389219 -0.0724982 0.14507948
0003b0 9a 22 f4 3d 4b fb 15 3c 31 8e 22 be a6 b2 b4 bd
       0.11920662 0.009154151 -0.15874554 -0.08823137
0003c0 ae a4 04 3e 09 a8 66 be 9c 89 1e 3e 89 0f ff 3d
       0.12953445 -0.22525038 0.15482181 0.12454135
0003d0 1e 62 bd bd 37 45 37 bd 14 69 02 bd 01 22 ab 3c
       -0.0924723 -0.044743743 -0.03183849 0.020890238
0003e0 a0 e1 10 bd 17 eb 3d 3e df e9 0d bd cb b8 3c 3e
       -0.035371423 0.18546711 -0.034646865 0.18429868
0003f0 0f 3a 0f be cb 49 c6 bd 72 40 0a 3d 48 e7 e1 bc
       -0.13986991 -0.09682044 0.033752866 -0.027576104
