data/pretrained_MoleculeSTM/SciBERT-Graph-3e-5-1-1e-4-1-InfoNCE-0.1-32-32/text2latent_model.pth (torch, 788455 bytes, 2 tensors)

weight f4 [256, 768]
0	0xbcf8abcf	-0.030355362
1	0xbbbc2193	-0.005741307
2	0xba6f6f29	-0.00091336906
3	0xbcf79bcc	-0.030225657
4	0xbc650ddd	-0.013980356
5	0xbc797066	-0.015224552
6	0xbcf1e413	-0.0295277
7	0x3bc36147	0.005962524
8	0x3ca72b1d	0.0204063
9	0x3cc95fd0	0.02458182
10	0xbc464c31	-0.012103126
11	0xbc848a45	-0.016179213
12	0x399c0e7d	0.00029765433
13	0xbcea0aca	-0.028569598
14	0x3cabb011	0.020957978
15	0xbc162f51	-0.009166555
16	0xbce8a88d	-0.028400684
17	0x3d4e5963	0.050378215
18	0xbcbb7eca	-0.022887606
19	0x3d0d6847	0.034523275
20	0x3c9bdecb	0.019027134
21	0x3d21c88d	0.0394979
22	0xbd08233e	-0.033236735
23	0x3cd14c81	0.025549175
24	0xbd003047	-0.03129604
25	0xbcc7bf4d	-0.024383212
26	0xbcd289aa	-0.025700409
27	0x3d7e8833	0.06214161
28	0xbac4b194	-0.0015006536
29	0x3be9088b	0.007111614
30	0xbcc4b6b0	-0.024012893
31	0xbbe35f4f	-0.006938852
32	0x3d03de80	0.032194614
33	0xbcd0aa36	-0.025471788
34	0x3b9a7ecb	0.004714822
35	0xbc233055	-0.009960254
36	0x3c9096e4	0.017650075
37	0x3d1f5d60	0.03890741
38	0x3d15bd1e	0.03655731
39	0x37fa6f9b	2.9854293e-05
40	0xbccecb76	-0.025243502
41	0xbc7cf936	-0.015440276
42	0x3cba27cf	0.02272406
43	0xbd2c1fdd	-0.042022575
44	0x3d27681a	0.040870763
45	0x3cec9ba7	0.028882815
46	0xbb707249	-0.0036689213
47	0x3d44f74e	0.04808741
48	0x3bd82aa3	0.0065968796
49	0xbcf17a08	-0.029477134
50	0x3b2ceae6	0.0026385128
51	0x3cdf0dc0	0.027228236
52	0x3d71abae	0.059001617
53	0xbc1bd4d8	-0.009511195
54	0xbd035e4d	-0.032072354
55	0x394ec918	0.00019720604
56	0xbd1c4792	-0.038154192
57	0xbcf9f7a4	-0.030513592
58	0xbd1927b2	-0.037391372
59	0x3d658c36	0.05604192
60	0xbcb6a8e0	-0.022297323
61	0x3cfd48c8	0.030918494
62	0x3c302e5f	0.010753243
63	0xbc2d11ba	-0.010563308
64	0xbd21c652	-0.039495774
65	0x3c2c5d0b	0.01052023
66	0x3b3301cd	0.0027314306
67	0x3c84b24f	0.016198305
68	0x3c280f75	0.0102575915
69	0xbc763c2a	-0.015028993
70	0xbb8ae4f4	-0.004238719
71	0xbb0b8bc8	-0.0021293033
72	0x3c155c24	0.009116206
73	0xbcff2448	-0.03114523
74	0xbc113109	-0.008861789
75	0x3ca10e37	0.019660098
76	0x3c835911	0.016033681
77	0x3c91ccdc	0.01779788
78	0x3d31e51e	0.043431394
79	0xbd03e2d5	-0.032198746
80	0xbd072441	-0.03299356
81	0x3d10d534	0.035359576
82	0x3be32061	0.00693135
83	0x3d2f1d99	0.042752836
84	0x3d286c24	0.041118756
85	0x3cf611de	0.030037817
86	0xbd0335bb	-0.032033663
87	0x3d050ba8	0.03248182
88	0x3a5d12f2	0.0008433304
89	0x3d0cbcf6	0.034359895
90	0x3d81a7e4	0.06330851
91	0x3d3b4568	0.045720488
92	0xbc26680f	-0.010156645
93	0x3d0600f9	0.03271577
94	0xbc9d0298	-0.019166276
95	0x3d228678	0.03967902
96	0xbcdb17d6	-0.026744764
97	0xbc8e4a6f	-0.017369477
98	0x3d22f056	0.039779983
99	0xbcf2ad48	-0.029623643
100	0x3a899606	0.0010496981
101	0xbd41f7b8	-0.047355384
102	0x3bdc15f9	0.0067164865
103	0xbcee3bb6	-0.029081207
104	0xbca93c11	-0.020658525
105	0x3a9e281c	0.0012066397
106	0x3d73c9d8	0.059518665
107	0xbce8ab2e	-0.028401937
108	0xbc149eae	-0.009071035
109	0x3d0ca616	0.03433808
110	0xbcb8d489	-0.022562282
111	0xbce22365	-0.027604768
112	0xbd35f19d	-0.044419874
113	0xbc996143	-0.018723136
114	0x3c97faca	0.018552203
115	0x3cf7f0d7	0.030266209
116	0xb9fa711b	-0.00047767986
117	0xbd01ff8c	-0.03173785
118	0x3cf52526	0.02992494
119	0xbd198651	-0.03748161
120	0xbc868ce3	-0.016424602
121	0xbc614b7f	-0.01375091
122	0x3c8a8686	0.016909849
123	0xbd14df5e	-0.036345832
124	0xbcb3e6d7	-0.021960659
125	0xbbd503bf	-0.0065006907
126	0x3c39f12a	0.011349002
127	0x3bd14f75	0.006387646
128	0xbc3064fd	-0.010766265
129	0x39e5b0c1	0.00043809976
130	0x3d2d5264	0.042314902
131	0x3cdcc295	0.026948253
132	0xbaaf2a6b	-0.0013364082
133	0xbccd0498	-0.025026605
134	0xbc1497bf	-0.009069382
135	0xb900c09b	-0.00012278782
136	0xbbc69df4	-0.00606131
137	0xbd01921e	-0.03163349
138	0xbcedf891	-0.02904919
139	0x3d5c4e5c	0.053785667
140	0x3d2d0667	0.042242434
141	0x3c90e155	0.017685572
142	0xbb138ca9	-0.002251426
143	0xbcadbdc5	-0.021208653
144	0x39d5d308	0.00040783756
145	0x3c8fed7f	0.017569302
146	0xbd509faf	-0.050933536
147	0x3cba2cb3	0.022726392
148	0xbc3a51ac	-0.011372011
149	0xbc9728ba	-0.018452037
150	0x3ce89812	0.028392825
151	0x3b9e2f1c	0.004827393
152	0x3cf5ab7c	0.029988997
153	0x3b2bb283	0.002619893
154	0x3cf0ce61	0.029395284
155	0x3c731b6d	0.014838082
156	0x3b968c8a	0.0045943903
157	0xbc018585	-0.007905369
158	0xbc2fc0a9	-0.010727086
159	0xbc9a5f8c	-0.018844388
160	0xbbb38e00	-0.005479574
161	0xbd11a30f	-0.035555895
162	0xbc9aa4c1	-0.018877389
163	0xbd312d09	-0.04325584
164	0xbce52645	-0.02797235
165	0x3d072dcd	0.033002663
166	0xbd35ce87	-0.044386413
167	0xbcaad2e3	-0.020852512
168	0xbc62587a	-0.01381504
169	0xbc85283c	-0.016254537
170	0x3cffec8a	0.03124072
171	0xbce82c4f	-0.02834144
172	0xbcca28a4	-0.024677582
173	0x3d43ad6d	0.047772814
174	0xbcb6a240	-0.022294164
175	0xbc6d047f	-0.014466404
176	0xbba698d9	-0.005084139
177	0x3aa601d5	0.0012665341
178	0x3b6b3c90	0.0035894252
179	0xbd060c27	-0.032726433
180	0xbd252171	-0.040315095
181	0x3d365f73	0.04452462
182	0x3d1a1817	0.03762063
183	0xbcccb314	-0.024987735
184	0x3ceedf59	0.029159235
185	0x3c7b729a	0.015347147
186	0xbbb667e5	-0.0055665844
187	0xbd14c7f2	-0.036323495
188	0x3c04fa35	0.008116295
189	0x3ce6dec0	0.028182387
190	0x3cbf55ea	0.023356397
191	0xbd3bb8eb	-0.04583065
192	0x3a49f868	0.0007704557
193	0x3c254112	0.010086315
194	0x39335b33	0.00017104745
195	0x3bb74b01	0.005593658
196	0x3d162936	0.036660396
197	0xb95d7554	-0.0002111991
198	0x3c3c82cd	0.011505795
199	0x3d251a76	0.04030844
200	0x3c559687	0.013036377
201	0x3c987bbc	0.018613689
202	0xbc9c6f05	-0.019095907
203	0xbba6e1bc	-0.0050928276
204	0x3c922fe1	0.017845096
205	0xbc6d95ac	-0.014501017
206	0xbd66675c	-0.056250915
207	0xbca8d579	-0.020609604
208	0x3c23ded7	0.01000186
209	0x3ca19d84	0.01972843
210	0x3cc7f576	0.024409037
211	0x3cbbefa1	0.022941412
212	0xbcf55912	-0.029949699
213	0xbcfe65e9	-0.031054454
214	0xbbeeb55c	-0.0072848033
215	0xbc7f5f95	-0.015586753
216	0xbd527fca	-0.0513914
217	0x3cc0860c	0.023501419
218	0x3d6112f3	0.054949712
219	0x3c5aab44	0.013346497
220	0xbd32b645	-0.043630857
221	0x3cd44c05	0.025915155
222	0x3cc9f25a	0.024651695
223	0xbcf22023	-0.02955634
224	0xbd209e24	-0.039213315
225	0xbbc42bab	-0.005986651
226	0xbbabf15b	-0.0052472777
227	0xbd281f96	-0.041045748
228	0xbbb55b5b	-0.005534572
229	0xbd0a6354	-0.033786133
230	0xbcbe098f	-0.023197917
231	0xbcf19219	-0.02948861
232	0x3c5478d9	0.012968265
233	0x3ce5a796	0.028034013
234	0x3c2db7b9	0.010602885
235	0xbcd6acc6	-0.026205432
236	0xb9147e4b	-0.00014161428
237	0x3c9da046	0.019241463
238	0x3b107159	0.0022040217
239	0x3d3cdf78	0.046111554
240	0x3ba0d088	0.0049076714
241	0xbb21aa2c	-0.002466808
242	0xbc892410	-0.016740829
243	0x3d76ad30	0.06022376
244	0x3d0717e0	0.032981753
245	0xb976bb0e	-0.00023530071
246	0xbbcf42cc	-0.0063251015
247	0x3c8d0afe	0.017217156
248	0x3d08899b	0.033334356
249	0xbd1e620f	-0.038667735
250	0xbcafdfc8	-0.021469012
251	0x3c99e376	0.01878522
252	0x3c1ac07b	0.009445305
253	0xbd62cba4	-0.055369988
254	0x3d4c1645	0.049825925
255	0x3cee2015	0.029068032

bias f4 [256]
0	0xbbb0af10	-0.005391963
1	0xbd073bd9	-0.03301606
2	0xbd0f59c0	-0.0349977
3	0xbccd49dd	-0.025059635
4	0xbc41ce48	-0.011828966
5	0x3c30cc4f	0.010790898
6	0xbbe70582	-0.007050217
7	0x3d09e3b0	0.033664405
8	0x3c07d43d	0.008290348
9	0xbc70c117	-0.014694474
10	0xbc80bd16	-0.015715163
11	0x3c19a955	0.009378751
12	0x3cedc7f7	0.029026015
13	0x3c3898bb	0.0112668825
14	0x3b52342a	0.003207455
15	0xbc3ba0ab	-0.01145188
16	0xbc971d2e	-0.018446531
17	0x3c789d36	0.015174201
18	0xbd0411d3	-0.03224356
19	0x3cf13c5e	0.02944773
20	0x3c2afbbe	0.010435997
21	0x3cec502b	0.02884682
22	0x3c9593a6	0.01825888
23	0xbcf3de8e	-0.029769208
24	0x3d061bcd	0.032741357
25	0x3c909a4b	0.017651698
26	0x3c770c9c	0.01507869
27	0x3c87f701	0.016597273
28	0x3c4537bb	0.012037213
29	0xbc89014d	-0.016724253
30	0xbc9fed88	-0.019522443
31	0x3c88468a	0.016635198
32	0xbc66cdfb	-0.0140871955
33	0x3be6fa5b	0.0070488877
34	0xbccaadee	-0.02474114
35	0xbccfc4b2	-0.025362346
36	0x3cd0f452	0.025507126
37	0xbcd4db49	-0.02598347
38	0xbb434be7	-0.002979988
39	0x3c7aa93a	0.015299136
40	0x3c45f545	0.012082403
41	0xbc190d3e	-0.009341536
42	0x3cc76c38	0.024343595
43	0x3ced6196	0.028977197
44	0xbcceeca5	-0.025259325
45	0xbbf083b8	-0.007339921
46	0x3ab8e34b	0.0014105825
47	0xbce4a643	-0.027911311
48	0x3c2320fe	0.009956596
49	0x3ab68d39	0.0013927586
50	0xbcd0b8d4	-0.025478758
51	0x3cb361d9	0.021897243
52	0xbcf241db	-0.029572418
53	0xbb5dc9f9	-0.003384231
54	0x3cb9dc9f	0.022688208
55	0xbd0de77d	-0.034644593
56	0x3c14faf7	0.009093038
57	0xbd524b38	-0.051341265
58	0x3ba2b269	0.004965116
59	0x3d17152f	0.036885437
60	0x3b258583	0.002525658
61	0xb9b8d0f4	-0.00035250897
62	0x3d04a09d	0.032379735
63	0xbc0cdba3	-0.008597287
64	0x3d0c46f4	0.034247354
65	0xbc50f8d9	-0.012754642
66	0x3c11faf9	0.008909934
67	0x3c90fe09	0.017699258
68	0xbc4c086e	-0.012453182
69	0xbd2f0f24	-0.04273905
70	0xbb0131e5	-0.0019713577
71	0x3c0af264	0.008480642
72	0x3c228153	0.009918529
73	0xbc4a4dc0	-0.012347639
74	0x3d177ace	0.03698235
75	0xbd04c772	-0.03241677
76	0x3cd0a2a6	0.025468182
77	0x3bf55bf9	0.0074877706
78	0xbc05fee1	-0.008178444
79	0x3d438770	0.047736585
80	0xbae45299	-0.0017419636
81	0xb9eeada3	-0.00045524267
82	0x3c288ee3	0.010287973
83	0xbc5c128d	-0.013432157
84	0xbc9cf5e3	-0.019160217
85	0x3d2a8397	0.0416294
86	0x3c468d00	0.012118578
87	0x3d10febe	0.03539919
88	0xbc364688	-0.011125214
89	0xbcb04a09	-0.021519678
90	0xbc418f4e	-0.011813952
91	0x3cb2edee	0.02184197
92	0x3cc94de4	0.024573274
93	0x3c3b47d7	0.011430702
94	0xbd08150e	-0.033223204
95	0x3d118245	0.035524625
96	0xbc90b9d3	-0.017666733
97	0xbc67493f	-0.014116584
98	0xbc59a769	-0.013284543
99	0xbca634c8	-0.02028884
100	0x3cc55cf8	0.024092183
101	0xbcdb77b4	-0.026790477
102	0xbd34cea7	-0.04414239
103	0xbc1ed690	-0.00969471
104	0xbb65c396	-0.0035059205
105	0x3d06b27c	0.03288506
106	0xbb0a0526	-0.0021060198
107	0xbcaaf4ff	-0.020868776
108	0xbc4d4d14	-0.012530584
109	0xbbde5373	-0.0067848503
110	0x3cdc2d4f	0.026877074
111	0x3cc62f81	0.024192574
112	0x3b9e44a2	0.004829959
113	0xbc8a0493	-0.016847884
114	0xbc7c7bb8	-0.015410356
115	0xbc7b5b90	-0.015341654
116	0x3d2d1fe0	0.042266726
117	0x3d2eca0e	0.042673163
118	0x3c5e0029	0.013549843
119	0xbcc1a83f	-0.023639796
120	0x3bd3b036	0.006460215
121	0x3cd36691	0.025805743
122	0x3be11bbd	0.0068697617
123	0x3ca594cd	0.020212555
124	0x3ca10e5c	0.019660167
125	0xbbd7a251	-0.006580629
126	0x3b9fa848	0.0048723556
127	0x3bc6c65c	0.0060661267
128	0xbd011757	-0.0315164
129	0xbcb5f7b7	-0.022212846
130	0xbbd100bb	-0.006378261
131	0xbcf5ecaf	-0.030020086
132	0xba3b6063	-0.00071478466
133	0x3c0b24ed	0.0084926905
134	0x3ceb261c	0.028704695
135	0xbcf56270	-0.029954165
136	0x3d11ab78	0.035563916
137	0x3c81d580	0.015848875
138	0x3ce1bff9	0.02755736
139	0x3c90bb93	0.017667567
140	0x3d00f148	0.031480104
141	0x3c716ecf	0.0147358915
142	0x3d29fa6c	0.041498587
143	0xbb8ec288	-0.004356686
144	0xbbf9bca7	-0.007621366
145	0xbd1580af	-0.036499675
146	0xb96fbbe2	-0.00022862808
147	0xbc09a527	-0.008401192
148	0x3c9d62a8	0.019212082
149	0x3c3c5c99	0.011496686
150	0x3ca0055a	0.019533802
151	0x3a9e25a7	0.0012065665
152	0xbb7d1b98	-0.0038621183
153	0xbb99753d	-0.0046831653
154	0xbced7cfb	-0.02899026
155	0x3c281ffa	0.01026153
156	0x3cbf9e4b	0.02339091
157	0xbc1530e3	-0.009105894
158	0xbc7535be	-0.014966426
159	0xba9b4ffe	-0.0011849401
160	0xbc5440b5	-0.0129548805
161	0xba004735	-0.0004893423
162	0x3bb44fdc	0.005502684
163	0xbcf4631d	-0.029832417
164	0x3c641fc3	0.013923588
165	0x3aab1dbe	0.0013055129
166	0xbc8b36e2	-0.016993944
167	0xbcf97a7b	-0.030453911
168	0xbbbb401b	-0.005714429
169	0xbcc65530	-0.024210542
170	0x3bf6b6ca	0.0075291144
171	0xbc23505f	-0.009967892
172	0x3c96faa0	0.018430054
173	0xbc1d3945	-0.009596174
174	0xbd000b81	-0.03126097
175	0x3c023141	0.007946313
176	0xbbc5056d	-0.0060126097
177	0xbd09da20	-0.033655286
178	0x3d3b6eb4	0.04575987
179	0x3c8297ac	0.015941463
180	0xbc37b607	-0.011212832
181	0x3d16e932	0.036843486
182	0xbccdb11a	-0.025108863
183	0xbb4ff537	-0.0031731853
184	0xbcaf8286	-0.021424543
185	0xbc9fbf65	-0.019500444
186	0xbd2f8496	-0.042851053
187	0xbc981a71	-0.018567296
188	0xb98f0583	-0.00027279192
189	0x3cb18233	0.02166853
190	0x3cbe87ab	0.02325805
191	0xbc1270f2	-0.008938061
192	0xbc54cad1	-0.012987808
193	0xbcc740b3	-0.024322843
194	0x3d0c44d7	0.03424534
195	0xbd15e337	-0.036593642
196	0xbbcbed08	-0.0062233247
197	0x3c7e9e4b	0.01554067
198	0x3cac0171	0.020996781
199	0xbd0aece6	-0.03391733
200	0x3c9dc4d2	0.01925889
201	0xbbcfae27	-0.0063378992
202	0x3cb5aa4b	0.022175929
203	0x3bf54d46	0.0074860184
204	0xbc3615b7	-0.011113576
205	0xbc2ca5da	-0.010537589
206	0x3d0e38ab	0.03472201
207	0x3c4ef299	0.012631082
208	0xbd0859a9	-0.03328863
209	0x3cfed37f	0.031106709
210	0xbc023451	-0.0079470435
211	0xbc045d72	-0.00807892
212	0xbc0c0df9	-0.008548253
213	0x3d27e663	0.0409912
214	0x3cd34acd	0.025792504
215	0xbd14489c	-0.03620206
216	0xbcd34031	-0.025787445
217	0x3d160b0d	0.036631633
218	0x3cb05642	0.021525506
219	0x3c82a697	0.015948577
220	0xbc97f1e2	-0.018547956
221	0x3b04e298	0.0020276662
222	0xbc8fa971	-0.01753685
223	0xbc8578b3	-0.016292905
224	0x3ccf3940	0.025295854
225	0x3d252d08	0.04032615
226	0x3c8a312d	0.016869152
227	0xbc74e39a	-0.014946843
228	0xbcb6587e	-0.022258993
229	0xbce0d003	-0.027442938
230	0xbb0d21f4	-0.002153513
231	0xbc1239f0	-0.008924946
232	0xbc9ab769	-0.018886285
233	0xbc0b1da6	-0.008490955
234	0x3bf8689b	0.0075808293
235	0x3c178004	0.00924683
236	0xbb879ef7	-0.004138823
237	0x3c83e5d3	0.0161008
238	0xbd0dfc85	-0.03466465
239	0x3d04c5eb	0.03241531
240	0xbc9e1224	-0.01929576
241	0x3ca4b4ee	0.020105805
242	0x3c303c20	0.010756522
243	0xbbc0939f	-0.005876973
244	0x3c954dee	0.018225636
245	0xbc877f10	-0.01654008
246	0xbcf67eb0	-0.030089706
247	0x3c9d89aa	0.019230682
248	0x3be6c6be	0.007042735
249	0x3d080393	0.033206534
250	0xbc58f9ef	-0.013243183
251	0x3d0f1143	0.03492857
252	0x3c822d0d	0.015890623
253	0x3c50d0fc	0.012745138
254	0x3be1e91d	0.0068942443
255	0xbcadcbb0	-0.02121529
